Model: "sequential"
_________________________________________________________________
Layer (type)                 Output Shape              Param #   
=================================================================
dense (Dense)                (None, 64)                3264      
_________________________________________________________________
dropout (Dropout)            (None, 64)                0         
_________________________________________________________________
dense_1 (Dense)              (None, 32)                2080      
_________________________________________________________________
dropout_1 (Dropout)          (None, 32)                0         
_________________________________________________________________
dense_2 (Dense)              (None, 1)                 33        
=================================================================
Total params: 5,377
Trainable params: 5,377
Non-trainable params: 0
_________________________________________________________________
Finish training keras model, test accuracy 0.4966, test RMSE loss 0.8799
Input dim = 50 (userFeature * movieFeature)
